chatbot_tutorial/data.pth (torch, 12631 bytes, 6 tensors)

l1.weight f4 [8, 178]
000000 cf ca 8b 3e cd 5e a7 3f a6 c7 64 3d dd a2 02 be
       0.27303168 1.3075806 0.055854462 -0.1275744
000010 7d 6a bf be 23 7c 16 be dc e0 89 be cf fd 49 be
       -0.37385932 -0.14695792 -0.26929367 -0.19725727
000020 a2 f5 55 be 53 d5 b6 bd 2a 12 25 bf 4d 9c 1b be
       -0.20894483 -0.08927407 -0.6448084 -0.15196343
000030 dd 48 c2 3e 43 56 8c bf 50 e7 47 3f 91 2b 32 be
       0.37946215 -1.0963825 0.7808733 -0.17399432
000040 80 6f a9 3f ad 57 83 be 7a ff 8e 3c 39 a8 52 bd
       1.3237152 -0.2565283 0.017455805 -0.05142996
000050 76 4f c0 bd c0 29 da 3f b7 00 85 bf 55 14 42 bf
       -0.09390156 1.7043991 -1.0390843 -0.75812274
000060 e1 0f 0a 3f fb 17 66 3e 7e 1e b6 be d1 2d 9e bf
       0.5393048 0.22470085 -0.3557014 -1.2357732
000070 5c 54 9b 3d a3 40 42 bf b3 57 3b be a0 b4 2a 3f
       0.0758445 -0.7587988 -0.18295173 0.6668186
000080 db ac 84 3f 35 89 61 3e 9d 4b eb bd 06 5c f3 bd
       1.0365251 0.22024997 -0.114890315 -0.118827865
000090 4f a8 9d 3f 19 f3 ba 3f cb d0 4b 3f f3 5d 1a bf
       1.2316989 1.4605438 0.7961547 -0.60299605
0000a0 b3 92 9e be 61 24 48 3e 28 13 17 3f 94 c3 78 3e
       -0.30971298 0.19545127 0.59013605 0.24293357
0000b0 93 e3 85 bf 73 8d 9a 3d 15 02 68 be 1f 2d f7 3b
       -1.0460075 0.075465105 -0.22657044 0.0075432207
0000c0 dd b0 87 be 23 35 04 bf 73 dc 44 be 26 f9 6b be
       -0.26502123 -0.5164358 -0.1922472 -0.23044261
0000d0 43 35 ae be 6b 0d 5a bf 19 83 b0 3e d4 37 42 bf
       -0.3402501 -0.85176724 0.3447502 -0.75866437
0000e0 ca f4 dc 3f e7 ff 14 bf 46 ac 1e bf 98 ab 42 bf
       1.7262204 -0.58202976 -0.6198162 -0.7604308
0000f0 53 3b 99 3f 9f c6 37 3f c3 6b 83 3e 2f f6 a2 3f
       1.1971229 0.71787447 0.25668153 1.2731379
000100 2a f8 45 bf e5 ce d4 3f ac 55 7a 3f 8e 16 bf 3f
       -0.77331793 1.6625639 0.97786975 1.4928758
000110 c4 1f b0 3f 6f 25 17 bf 73 9a 0a 3f 48 ec a4 3f
       1.3759694 -0.59041494 0.5414192 1.2884607
000120 b7 56 37 be 64 18 09 bf ea 50 a5 3f 89 c8 0c 3f
       -0.17904173 -0.5355284 1.2915318 0.5499349
000130 88 8b 43 bf e6 69 f1 3e 17 be 79 3e ab 1a 1c bf
       -0.7638478 0.47151107 0.2438892 -0.6097819
000140 c8 b9 48 bf a5 27 8c be 76 2c 07 3f 7f 2b e7 3e
       -0.7840848 -0.27373996 0.52802217 0.45150372
000150 bb 73 85 3f 7d 31 98 3f 50 c2 24 3d 04 28 06 bf
       1.0425943 1.1890103 0.040224373 -0.5240481
000160 da f8 8b 3e 02 96 fa bd 19 53 28 3e 83 42 6b 3e
       0.27338296 -0.12235643 0.16437949 0.22974591
000170 03 58 c4 bc 1a 21 42 bf 15 ba 42 bf f3 ae 83 3e
       -0.023967749 -0.7583176 -0.7606519 0.25719413
000180 1b de d6 be 30 63 1d 3f 3c 1a 56 3f 37 0a eb 3e
       -0.41966328 0.61479473 0.8363378 0.4590623
000190 0f 76 16 3f 79 ac 53 3e a4 89 22 3f d8 a7 5c bf
       0.58773893 0.20671262 0.6349127 -0.8619361
0001a0 ca 84 51 3e a5 ad 93 3f 4c da b6 be ba 8f a7 3f
       0.20460811 1.1537367 -0.35713422 1.3090737
0001b0 17 b3 5b 3e 3d 2d 84 be 3d d3 ae 3e e5 1b 98 3f
       0.21455036 -0.25815764 0.34145537 1.1883513
0001c0 55 aa 9b 3f d6 75 b8 3d 42 53 02 bf ff 3a 71 be
       1.2161356 0.090068504 -0.5090829 -0.23557661
0001d0 ad 5b 0e 3e 26 3e 44 3f 1d 75 03 bc 76 74 17 be
       0.13902159 0.7665733 -0.008023527 -0.1479052
0001e0 5d 64 a5 3e a8 56 95 3e 0b a4 ea 3e 45 db 01 bf
       0.32303134 0.29167676 0.4582828 -0.50725204
0001f0 23 41 5d 3f 92 81 7f bd 48 cb 0f 3f 6f 49 22 be
       0.86427516 -0.062379427 0.5616956 -0.15848325
000200 da b4 03 bf bc 61 43 bf a5 ba 4e be b8 55 33 3f
       -0.5144783 -0.76321006 -0.20188387 0.7005267
000210 59 e5 fc be f4 92 8c bf 14 9b 1b bd 4b 62 0d be
       -0.49393728 -1.0982347 -0.03798969 -0.13807027
000220 18 61 b5 3e e2 58 49 3f 0c d6 e2 3e 8b 04 33 bf
       0.3542564 0.7865125 0.4430393 -0.6992881
000230 94 6b 35 bf d7 b5 d2 be bb 64 67 3e 87 57 42 bf
       -0.70867276 -0.41154358 0.2259702 -0.75914806
000240 6e 43 46 bf 51 07 e2 3e 96 e2 04 3f 3a 2b ad bd
       -0.7744664 0.44146207 0.5190824 -0.084555104
000250 f5 7e d2 3f 62 b2 63 bf 97 c0 1d 3f 28 fe 19 3f
       1.6444994 -0.88944066 0.61621994 0.60153437
000260 0b b1 94 be 03 58 7b 3e dc b6 8d be 54 1a 84 be
       -0.29041323 0.24545293 -0.27678573 -0.25801337
000270 6e 66 5f 3f 13 a9 3a be b7 9b f6 be 03 d3 38 3f
       0.8726567 -0.18228559 -0.48165676 0.7219698
000280 4e ad b6 bf 05 21 84 bf 6b 63 b3 3e 38 69 98 3e
       -1.4271638 -1.0322577 0.35036787 0.29767776
000290 f2 24 45 bf 9c bb 28 3c 2e 23 86 3f 3a 38 98 bd
       -0.770095 0.010298636 1.0479486 -0.07432599
0002a0 25 a4 12 bf 39 80 1e 3f b3 88 d3 bc b2 82 14 3f
       -0.57281715 0.619144 -0.02582202 0.58011925
0002b0 1d 3e 1a 3f c8 7a a7 3f 47 bb 9b be ae 80 14 3f
       0.6025103 1.3084345 -0.3041632 0.5800885
0002c0 82 46 82 3e 3f 25 a0 bb 8e 56 8f 3e f8 01 5b be
       0.25444418 -0.0048872526 0.27995723 -0.2138747
0002d0 8e 65 b7 be 0c 8f e6 bd c2 59 e2 bd 17 b2 06 3f
       -0.35819668 -0.11257753 -0.11052276 0.52615494
0002e0 9e 08 c6 3e d4 c3 a6 3e 0e bd b2 3e c3 82 a2 be
       0.3867845 0.3257128 0.34909862 -0.31740388
0002f0 2f 9b e3 3d f5 0e 26 3f ff 8e 05 bf 76 ec 94 be
       0.11113583 0.6486657 -0.5217132 -0.29086655
000300 37 2b c1 be 89 da 2e bf fa 3f cf 3e c6 9d 48 3e
       -0.37728283 -0.6830221 0.40478498 0.19591436
000310 00 d5 57 be ff ba 71 be 59 7f 18 3f b3 f2 ae bf
       -0.21077347 -0.2360649 0.5956932 -1.3667816
000320 3e dc a8 3f 78 16 8f 3f 6d cd c1 3e d0 75 85 bf
       1.3192213 1.1178732 0.3785204 -1.0426579
000330 02 1e 3f be c6 6d 3f bf 70 1a 77 be be ae 85 3f
       -0.18663791 -0.74776876 -0.24131179 1.0443952
000340 a2 79 42 bf 16 c4 aa 3f 36 b2 d5 bd 1c 9e f3 be
       -0.75966847 1.3341091 -0.10434382 -0.47581565
000350 80 02 17 3f 28 6c 66 3f 67 8e 6d 3f 54 43 89 bf
       0.5898819 0.90008783 0.92795414 -1.0723672
000360 4a d0 81 3e 92 be 09 3f 30 4d 69 3f 2a a8 ad bd
       0.25354224 0.5380641 0.91133404 -0.084793404
000370 63 2f 54 3f 49 80 34 be 3b 6e 07 bd 83 17 bd 3e
       0.82884806 -0.17627062 -0.03306411 0.36932
000380 86 8d c9 3e d5 98 36 3f 6a c4 50 3f 53 f1 43 3f
       0.39365786 0.71326953 0.81549704 0.76540107
000390 d4 95 1b 3f 4c fb 4d bf 80 63 2e 3f 21 98 06 bd
       0.60775495 -0.80461574 0.68120575 -0.032859925
0003a0 57 c8 d9 be 4d f1 98 3f c2 1e b1 bf 0d fd 6e 3f
       -0.4253566 1.1948639 -1.3837512 0.93354875
0003b0 a4 50 37 3f 8b df 9a bf b1 c2 b3 3f ec 7a 62 3f
       0.7160742 -1.209947 1.404379 0.88468814
0003c0 ed fa 10 bf 64 7b af 3f e6 67 fd bc a6 fb c3 3e
       -0.5663288 1.3709531 -0.030933332 0.3827793
0003d0 9f 79 30 3f bf db a1 3e 3b aa 97 3e 81 69 72 3f
       0.6893558 0.31612965 0.29622063 0.94692236
0003e0 b2 05 49 3f 4e 4a 62 3e f2 ef 07 bf 2c ad 75 3f
       0.78524315 0.22098657 -0.531005 0.95967364
0003f0 9d 07 af 3f cb cf 8b 3e f9 f7 dc be 59 63 6a 3f
       1.3674198 0.2730697 -0.43157938 0.9155784

l1.bias f4 [8]
000000 69 55 40 3f 08 96 99 3f 71 4a 93 3f 89 2a 83 3f
       0.75130326 1.1998911 1.1507093 1.0247356
000010 c0 45 af 3f 4e ea b3 3f 17 3b 8f 3f 43 39 85 3f
       1.3693161 1.4055879 1.1189908 1.04081

l2.weight f4 [8, 8]
000000 7b 5e 25 c0 8e 13 41 bd 42 cd a1 3e 58 e3 10 40
       -2.5838916 -0.04713779 0.31601912 2.263876
000010 84 f4 97 3f 7b d4 ea 3e b8 5e 15 3f 56 06 32 3f
       1.1871495 0.45865235 0.58347654 0.6954092
000020 cc 7c 35 3e b6 38 36 40 84 f1 58 be f0 ac b6 bf
       0.17723387 2.8472114 -0.21185881 -1.4271526
000030 c1 c9 89 3d f6 41 17 3f 3a 31 1d 40 8a 61 fe 3f
       0.06727935 0.59085023 2.4561296 1.9873517
000040 78 77 3e 40 39 85 a3 bf ad ce 84 3f af ba 1c 40
       2.9760418 -1.2775031 1.0375572 2.4488943
000050 74 74 d1 3f d9 32 ce be 40 13 cf 3f 7b 58 ff 3f
       1.6363664 -0.4027317 1.617775 1.9948877
000060 f4 eb 00 be a5 a3 c9 be e8 c9 54 3e 1c 75 55 be
       -0.12590009 -0.39382663 0.20780146 -0.20845455
000070 d0 51 05 3d 1b f5 4a be 10 ac 20 be 09 69 61 3e
       0.032548726 -0.19820063 -0.15690637 0.22012724
000080 57 8e 35 3f 4a 9a 40 bf 7a cc 87 3f e3 f9 85 3f
       0.7092032 -0.75235426 1.0609276 1.0466884
000090 d6 9f 33 bf 26 01 c4 3f 6b b5 ae bf 32 e9 17 bf
       -0.70165765 1.531285 -1.3649114 -0.593402
0000a0 ef be 96 bd 52 0f 8a 3e f1 bc cd be 11 30 92 bf
       -0.073606364 0.26964813 -0.40183213 -1.1420919
0000b0 c9 92 0e be b9 2c 59 40 a2 d9 f8 3e f2 74 22 3f
       -0.13923182 3.3933547 0.4860354 0.63459694
0000c0 eb 6b 54 bf e6 96 80 bf e6 67 2b 40 e2 c8 74 bf
       -0.8297717 -1.004605 2.6782165 -0.9561902
0000d0 60 e3 da 3f 48 e6 02 3f 19 95 48 3e 6c c2 d5 3e
       1.7100639 0.5113263 0.19588126 0.41749895
0000e0 54 b8 83 bf 42 43 18 40 1d 5e b2 3f 23 3c 66 3f
       -1.0290627 2.379105 1.3934971 0.8993551
0000f0 9c f3 c0 3f f8 c2 02 3f 39 22 57 bf 5c f2 b9 bf
       1.5074344 0.5107875 -0.84036595 -1.4527087

l2.bias f4 [8]
000000 1f 13 95 3e 6e 13 81 3f 6d 53 e5 3e 7f e9 86 be
       0.2911615 1.0084054 0.4479021 -0.26350018
000010 5c 62 18 3f 2d de 99 3d 88 54 ee 3e 53 19 4d 3f
       0.59525084 0.0751308 0.46548867 0.80116767

l3.weight f4 [43, 8]
000000 1a f0 40 bf 84 bf 30 3f 49 6d d2 3e 05 5d 75 3e
       -0.75366366 0.6904223 0.41099003 0.23961265
000010 cf 18 8d c0 8b 5b 04 c0 fb ff 36 3d 07 86 a5 be
       -4.4092784 -2.0680873 0.044677716 -0.32328817
000020 92 32 4f 3f 82 ff b3 3e 10 63 af 3e d0 de 91 3d
       0.8093654 0.35155874 0.34255266 0.07122576
000030 b5 58 c0 bf 94 4e 94 3e ac e7 4d c0 8d d7 3b c0
       -1.5027071 0.289662 -3.2172651 -2.9350312
000040 86 a7 d7 3d c7 1f fb 3d 27 09 97 3e ba 8c b2 be
       0.105299994 0.122619204 0.2949917 -0.3487299
000050 61 b0 26 c0 94 63 80 3d e5 81 fa be 35 a2 9d bd
       -2.6045153 0.06268993 -0.48927227 -0.07696954
000060 97 5b ea 3e 3e da b9 bf fe 9e 65 bf 24 d6 53 be
       0.45773003 -1.4519727 -0.8969573 -0.20687157
000070 b2 ad 8d be c4 48 c0 bd 45 eb 22 3f be 04 ab 3e
       -0.27671582 -0.09388879 0.6364024 0.33402056
000080 38 18 e1 3e bc 62 d3 3e ae 2b 48 3f ef 57 5c 3e
       0.4396379 0.41286266 0.7819165 0.21517919
000090 f1 6e 42 c0 92 a9 bc bf 25 bc f0 be 47 5b 54 c0
       -3.0380213 -1.4739249 -0.47018543 -3.3180711
0000a0 24 39 a3 bf e3 73 88 be 2f d6 4b 3f 81 8a fd 3c
       -1.2751813 -0.26650915 0.79623693 0.030949833
0000b0 ca 4f 87 be e8 9f 02 c0 62 14 d7 bf 0e 11 46 bf
       -0.26428062 -2.04101 -1.6803095 -0.77369773
0000c0 5c 05 b5 bf e2 a1 ee bf bc d1 ef 3e 9d df 28 be
       -1.414226 -1.8643153 0.46839702 -0.16491552
0000d0 99 71 10 3f 8a 89 f6 bf 1e d7 ac be 6a dd 23 be
       0.56423336 -1.9260724 -0.3375787 -0.16002432
0000e0 ba 1b 5a be 10 72 dd bd 54 d8 e7 3e fa 29 43 3e
       -0.2129964 -0.10812771 0.45282233 0.19058982
0000f0 8b fd b9 bf 54 b2 9b be 00 0e 81 3e a9 55 20 bf
       -1.45305 -0.3040949 0.25205994 -0.6263071
000100 29 8e 63 bf da 2d 83 b9 6f e8 b2 3b 4b 21 5a be
       -0.88888794 -0.0002502043 0.005459837 -0.21301763
000110 ce 99 e9 bf 9c 3b 82 3e cc 21 9f 3f 01 01 29 c0
       -1.8250062 0.25436103 1.2432189 -2.6406863
000120 89 87 62 be 42 00 8d bd 43 29 c7 bf a0 55 d5 be
       -0.22122015 -0.06884815 -1.5559467 -0.4166689
000130 61 83 98 bf eb d0 22 be 89 a5 54 3f 2f ec 3a 3f
       -1.1915094 -0.15900008 0.83065087 0.7301664
000140 89 4a 27 bf 68 a9 31 3f c4 e9 fa bd 78 e7 7f 3e
       -0.65348107 0.6939912 -0.122516185 0.24990642
000150 4e 7e 5e c0 13 57 30 3f bf 75 0e bf f0 f1 69 bf
       -3.476459 0.68882865 -0.55648416 -0.9138479
000160 5d 4f 79 3f 98 a2 df be a3 1d 83 3d 0d 32 89 3e
       0.97386724 -0.43678737 0.06402137 0.26795998
000170 1e e4 33 c0 7f 16 e3 bf 7a 34 73 3f 36 2a 1e bf
       -2.8107982 -1.774124 0.9500195 -0.6178316
000180 b3 bb b4 bf 34 04 92 3f 43 14 97 3e 58 ea 4b 3e
       -1.4119781 1.1407533 0.29507646 0.19913614
000190 ca 6e 44 c0 77 30 46 bf b1 97 5f c0 29 8d 15 bf
       -3.069262 -0.774177 -3.4936335 -0.5841852
0001a0 72 52 80 3e 39 f0 59 bd fa 7d cd bf b2 7d 73 be
       0.250629 -0.05320761 -1.605407 -0.23778418
0001b0 d4 46 20 3e b4 eb d3 3e e3 7b cf bf 34 e1 3c 3e
       0.15652019 0.41390765 -1.6209682 0.18445283
0001c0 c8 42 28 3e b4 32 98 bf f5 a2 18 be 6d b2 6f be
       0.16431725 -1.1890473 -0.14905913 -0.23407908
0001d0 2e c3 65 3e 12 0a 04 be 98 17 01 c0 b0 e9 94 3e
       0.22437736 -0.12894467 -2.017065 0.2908454
0001e0 f7 e3 4f 3f 56 c3 b8 bd 86 5f 15 bf 24 b6 68 be
       0.8120722 -0.090216324 -0.5834888 -0.22725731
0001f0 e2 2a 91 bf ed 29 e9 bb 6a e4 0a c0 b6 d3 01 3f
       -1.1341212 -0.0071155936 -2.1701913 0.5071367
000200 be 1c 2e 3f fe d6 fd bf e8 25 c7 3d 0c 74 d9 bd
       0.6801261 -1.9831235 0.09724027 -0.10617837
000210 9a 3c fc 3e f6 7b 10 c0 cf 6b 17 c0 a2 f3 97 bd
       0.49264985 -2.257566 -2.365955 -0.07419516
000220 98 4c 3e 3f 2d 48 5b bf 62 dc 03 3e da 82 48 3e
       0.7433562 -0.85657007 0.12877038 0.19581166
000230 26 93 e9 be f9 93 8e bf 89 0d ee be eb c3 f3 be
       -0.45620078 -1.1138908 -0.46494702 -0.4761041
000240 71 2c 49 be b5 27 2c c0 16 54 a7 be d2 bf 0e 3e
       -0.1964586 -2.6899235 -0.3268134 0.13940361
000250 c4 8c fb 3e 1f e6 5d 3e 54 66 ad 39 ea c7 c2 be
       0.49130833 0.21669815 0.00033073372 -0.38043147
000260 ae 46 c6 bf 93 a1 05 bf 29 85 40 bf 18 6d 94 bd
       -1.549032 -0.5219967 -0.75203186 -0.072473705
000270 3f d9 ec 3e 58 cc 1f bf 1e 5f 46 3f c0 cb 23 3e
       0.46259496 -0.6242118 0.7748889 0.15995693
000280 dd 5d d7 bf 77 40 14 bd e3 a2 4e bf 82 53 60 be
       -1.682552 -0.03619429 -0.80717295 -0.21906856
000290 37 da 87 3e 75 e5 33 3f fb fb 06 c0 85 2e 70 3d
       0.26533672 0.70272 -2.1091297 0.058638114
0002a0 23 88 9c bd f2 61 de 3d fe 9b 66 bf 3a 0c 8f be
       -0.076431535 0.10858525 -0.90081775 -0.27939016
0002b0 e9 eb ef bd bb c8 95 3e 07 a9 a8 3e f5 54 24 bf
       -0.11714918 0.29254708 0.32941458 -0.64192134
0002c0 58 e0 cd bf d3 e2 93 bf a1 a5 14 3f 0b 1f 5c bd
       -1.6084089 -1.1553596 0.5806523 -0.053740542
0002d0 93 e1 ff 3e 0b 0e 9a 3c e2 a6 eb bf f8 39 14 c0
       0.49976787 0.018805524 -1.8410304 -2.3160381
0002e0 ba 79 14 c0 65 46 fa 3e 11 2e 1a bf 17 79 cc be
       -2.3199296 0.48881832 -0.6022654 -0.39936134
0002f0 21 10 48 c0 72 8a 48 be ac e2 99 3e ff f7 1e 3f
       -3.1259844 -0.19584063 0.3005575 0.6209716
000300 3e 7c 1a c0 f8 fa d1 be 76 d2 5b bf ec 7b 3f be
       -2.4138331 -0.41011786 -0.8586801 -0.18699616
000310 83 98 b7 3e 51 ff 24 3f 70 19 d3 3e e9 53 5d bf
       0.35858545 0.6445208 0.41230345 -0.8645616
000320 e3 c1 80 bc 41 5b 03 bf 2f 94 d1 3e b3 f7 9b be
       -0.015717452 -0.5131112 0.40933368 -0.30462417
000330 4b 19 ca 3c 5c 68 1a be 65 90 fd bf 3d 90 75 bf
       0.024670264 -0.15078872 -1.9809691 -0.95923215
000340 23 31 42 bf 1f ef 2a 3f 28 87 43 c0 7f df 9f be
       -0.75856227 0.6677112 -3.0551243 -0.312252
000350 4b 29 46 bf 1d e3 1c 3f 32 bd cb bf 40 f5 20 3f
       -0.7740676 0.6128405 -1.5917113 0.6287422
000360 77 8a ff 3d 51 fa e6 3d 95 15 f7 be 7c 3e b2 bc
       0.12477582 0.11278213 -0.48258653 -0.02175831
000370 c1 7b 6c c0 90 df 82 3b 9b f5 92 3f cd 58 84 be
       -3.6950533 0.003993936 1.1481203 -0.25849
000380 79 c9 4c bf 2b 3b 68 ba 8f cb 1f c0 d8 9e e5 bd
       -0.7999492 -0.00088589144 -2.4967992 -0.11211938
000390 c1 f5 f9 3d 20 c6 36 3f 15 98 64 3d 86 e4 80 bd
       0.12205077 0.71396065 0.0558091 -0.062935874
0003a0 2a 86 ad bf 59 d3 30 bd 56 18 85 bd de 8a 4e be
       -1.3556569 -0.043170307 -0.06498782 -0.20170161
0003b0 5e 8c 93 3e b4 2e 52 3f b7 2b 57 bf 55 de 39 c0
       0.2881803 0.82102513 -0.8405108 -2.904195
0003c0 ee a1 cb be 2d 35 c1 be 00 eb 17 be 0a 59 93 3d
       -0.3977198 -0.37735882 -0.14835739 0.07194717
0003d0 44 81 10 bf e9 d8 3e 3d 9f 30 a3 be eb da f1 3e
       -0.56447244 0.04659358 -0.31873032 0.47237334
0003e0 68 89 f2 be 30 4c 03 bf 67 ad 57 bf 2e d9 ef 3c
       -0.47370458 -0.5128813 -0.84248966 0.029278364
0003f0 69 ee b0 bf 6d 85 66 bf 30 36 5b bd f5 e1 2d bf
       -1.3822757 -0.9004734 -0.053518474 -0.6792291

l3.bias f4 [43]
000000 5e 18 eb 3e 90 8c 29 3d 69 75 b6 be d1 02 d5 be
       0.45917028 0.041393816 -0.35636452 -0.4160371
000010 3b 11 ac 3d 29 24 e8 3e c8 62 cb 3e 7a ff 1b be
       0.08401724 0.45340088 0.39723802 -0.15234175
000020 a3 9b c4 be 87 43 1d 3e ed 2d 41 3e a8 f8 47 3d
       -0.3839999 0.15357791 0.18865176 0.04882112
000030 40 44 8b 3e a7 17 e5 be 62 53 d0 3e 64 0f ec be
       0.27200508 -0.44744608 0.40688616 -0.46105492
000040 a7 55 55 bc c0 d3 45 3d 9c 07 ce be 28 95 1a be
       -0.013020909 0.048297644 -0.4024018 -0.15095961
000050 ca a0 c8 3e 2c 06 b3 be 60 b9 e4 3d b8 4b 29 3f
       0.39185172 -0.34965646 0.1116817 0.6613116
000060 1a db d7 be 80 20 0f be 3c 09 8d 3e df b5 e9 be
       -0.4215935 -0.13977242 0.27546108 -0.4564657
000070 51 48 b9 be 84 01 97 3e 2a a1 fd be bb 3d 8d be
       -0.36187986 0.29493344 -0.4953702 -0.2758616
000080 31 31 9d 3e 34 5f 2b 3f 3e 1f 9a 3e dc 9e 48 be
       0.30701593 0.66942143 0.3010196 -0.1959185
000090 e6 65 53 3d d1 74 1a be 5f 9b 89 3e 41 8b 3a be
       0.05161085 -0.15083624 0.2687635 -0.18217184
0000a0 6c 2e de bc 1d bf 0a 3e 65 a0 e3 3e
       -0.027121745 0.13549466 0.4445831
